Code/gcn/weights/model_std.pt (torch, 635289 bytes, 16 tensors)

conv1.bias f4 [64]
000000 79 ca 6c ba 76 d6 8a ba d2 f9 df bb 66 5a d8 3b
       -0.00090328563 -0.0010592479 -0.006835201 0.006602573
000010 39 eb c1 b7 ff d9 bb 3b bc 8e 2a bb 31 a0 a4 3b
       -2.3116927e-05 0.0057327743 -0.0026025018 0.005023979
000020 56 54 90 bb 13 57 4b bb 32 bf 82 bc 44 1d 18 bb
       -0.004404585 -0.0031027242 -0.01596031 -0.0023210803
000030 4c ae c4 ba 04 83 45 3a 32 13 a6 bb 9f 5d 6a 3c
       -0.0015005558 0.00075344765 -0.005068206 0.014304548
000040 6e 40 c7 3b a7 a5 47 bb da d7 0c ba 88 c1 87 3b
       0.0060806787 -0.0030463727 -0.00053727406 0.004142944
000050 63 cd aa 3b 17 c8 bf bb e0 06 90 bb fb cf 94 3b
       0.0052124723 -0.00585271 -0.004395351 0.0045413948
000060 85 0a 4d bb 3d 3c 46 bb 33 13 1b 3b 9d 3c 00 b9
       -0.0031286788 -0.0030248307 0.0023662567 -0.00012229611
000070 f3 84 ff 3b 61 f2 0f 3c 58 2a 6a bb 38 b5 74 bb
       0.007797831 0.008785815 -0.0035730805 -0.003733946
000080 74 f0 8d bb d9 01 d0 bb 18 0d 10 bb 83 11 a5 ba
       -0.0043316428 -0.0063478765 -0.002198046 -0.001259372
000090 25 f3 16 bc 85 f6 b6 3a 9c af 25 bc e6 a2 99 3a
       -0.009213244 0.0013958967 -0.010112669 0.0011721521
0000a0 32 c2 89 3c 44 74 bc bb 50 92 22 ba c3 5c 0e 3c
       0.016816232 -0.0057511646 -0.0006201612 0.008689108
0000b0 2d be 09 3c 0a b6 95 3b fc c8 8e bb 1d 03 53 3b
       0.008407158 0.00456882 -0.0043574553 0.00321979
0000c0 e5 11 f6 3a b6 31 3c 3b ff 9d b3 3b 15 9c be b9
       0.0018773644 0.0028716153 0.005481481 -0.00036355914
0000d0 32 77 57 3c 76 d0 d1 b7 c2 eb 60 3b 90 8e a5 bb
       0.013150977 -2.5011814e-05 0.003432021 -0.005052395
0000e0 d2 2a 3a bb f6 5b a5 3a ba 05 bb bb 81 ab 3b 3a
       -0.002840687 0.0012615907 -0.00570747 0.000715904
0000f0 41 29 f3 3a f3 03 9e 37 cc 37 47 bb 56 b8 c5 bb
       0.0018551723 1.8836907e-05 -0.0030398248 -0.0060339374

conv1.lins.0.weight f4 [64, 778]
000000 8d 8e 66 3d bd 92 c2 bd e7 b4 49 3d ac ce d9 3d
       0.05628829 -0.09500644 0.049244788 0.10635123
000010 62 9a 00 bc d1 ad a8 3b 49 6a 62 bb 44 5b ba bc
       -0.007849308 0.0051476737 -0.0034548214 -0.022748597
000020 8f 82 8b bb 52 60 67 bd 58 e0 1a 3b 63 44 9c bd
       -0.004257507 -0.056488343 0.0023632254 -0.07630231
000030 f2 9f e3 3c b3 8b 67 3b 36 ab 91 bc fa e3 3d 3d
       0.027786229 0.003533107 -0.017781835 0.046359994
000040 f7 62 30 3b 55 07 bc 3c b4 7b 91 bc d5 98 60 3d
       0.0026914456 0.022952715 -0.017759182 0.054833252
000050 62 23 0a bc 6a ef 61 bc c9 fc 12 bc 54 66 16 bd
       -0.0084312875 -0.013789991 -0.0089714015 -0.03671868
000060 68 0b 0e 3b 14 88 82 bd 24 ad e9 bc 9a 4e 55 3c
       0.002167428 -0.06373611 -0.028524943 0.013019228
000070 ed e3 09 3d 7b 19 a3 3a d7 ca ee 3a b2 54 06 bd
       0.033664633 0.0012443507 0.001821841 -0.032795615
000080 21 b0 f4 bb 3e e6 26 bc 9a ee 87 bc 1c cf af 3d
       -0.0074672853 -0.01018673 -0.016593266 0.08584425
000090 30 07 0c 3d 41 86 9e bc db 03 b2 3c 7b b3 41 bd
       0.034186542 -0.019351127 0.021730354 -0.047290307
0000a0 90 f5 82 bc 24 d0 b5 3a d5 d8 60 bd 1a 99 4b 3d
       -0.015986234 0.0013871235 -0.054894287 0.049706556
0000b0 36 a4 a8 3c 3e 48 37 3d 27 7e 37 bd 81 a3 79 bc
       0.020586114 0.04474663 -0.044798043 -0.015236736
0000c0 64 2f 2c bb d8 6f db 3a 7d df 6d bb 54 52 ae 3d
       -0.0026273364 0.0016741706 -0.003629654 0.085117966
0000d0 09 52 c1 bb 5b 01 46 3c 7d 64 ed 3c 03 82 73 bc
       -0.005899672 0.012085284 0.02897858 -0.01486254
0000e0 74 11 4d bb ef c2 5d bd 0d 69 5c 3d 7c d9 4f 3b
       -0.003129092 -0.05414098 0.05381112 0.0031715324
0000f0 c5 73 05 3d 14 26 43 3c 1f 60 bc 3c 8a 36 52 bc
       0.03258111 0.011910934 0.022995053 -0.012830386
000100 74 a5 6c 3c 4f 03 0f 3d 6b f8 94 b9 c6 ab e0 3c
       0.014443744 0.034915265 -0.00028413846 0.027425658
000110 5c 39 eb 3c 7b 07 c0 3a d4 60 5f bd 7a 15 31 bd
       0.028713875 0.0014650667 -0.054535702 -0.043233372
000120 5f 1d 47 3b 27 c7 16 bd 2c 66 c8 bb af 38 08 3d
       0.0030382497 -0.03681102 -0.0061156955 0.033257183
000130 8b b2 17 bc 11 cf fd 3d 13 5e e9 bc 96 29 b7 3b
       -0.009258877 0.123930104 -0.02848724 0.005589674
000140 ce 02 a6 bc 7e f0 a3 bc a0 2e 09 3d 97 56 8a 3d
       -0.02026501 -0.020012137 0.03349173 0.06754797
000150 15 ee 8d bd b7 59 0e bd f2 fc f9 bc ce 43 41 bd
       -0.06930176 -0.034753527 -0.030516122 -0.047183804
000160 13 b3 08 bd 80 76 a6 bb 40 3b 25 bd d1 eb a0 3c
       -0.033373903 -0.0050800443 -0.04033971 0.019643696
000170 37 2c 0a 3d 7a 09 3b 3c 9e 4e 9e 3c 71 60 d6 bc
       0.033733573 0.011415834 0.019324597 -0.026169034
000180 be 04 e3 3c b2 31 1b bd 17 76 0e 3e 64 6d 01 bd
       0.027712222 -0.03788919 0.13912235 -0.031598464
000190 7a dd 09 bd 31 25 3f bc 28 b6 cf 3b ec 09 6b 3d
       -0.033658482 -0.011666582 0.0063388534 0.05738251
0001a0 b8 20 14 bd 7b f1 98 bc a6 c8 16 3d 65 14 70 3d
       -0.036164016 -0.018669834 0.036812447 0.0586132
0001b0 b1 30 81 3d b7 67 c3 bc d7 0b 87 bc c0 c2 d9 3c
       0.06308115 -0.023853166 -0.016485138 0.026582122
0001c0 1e 0d 47 3d ac f7 9c 3c 27 f1 b7 bd 54 1d 0a 3c
       0.048596494 0.019161068 -0.08981543 0.008429844
0001d0 51 ac a1 bb 29 ee 19 bc 84 4e 00 3d cf 98 51 bc
       -0.004933872 -0.009395161 0.03132488 -0.01279278
0001e0 bc 41 a0 3c 5f f8 80 bc 8c d9 01 ba 83 e4 cb 3a
       0.019562595 -0.015743433 -0.00049533765 0.0015555773
0001f0 7d b6 f4 bc e4 d2 91 3d 15 e1 f8 3a 76 f9 8a bd
       -0.029872173 0.07120302 0.0018987978 -0.06785862
000200 18 09 a2 bc de 35 e9 bc 2d 06 be bb 51 13 4b bc
       -0.019779727 -0.028468069 -0.005799076 -0.012394742
000210 c8 ca 10 bd 2d e8 02 bc 9f c4 bf bc df ec 52 3a
       -0.035349637 -0.007989925 -0.023409186 0.0008046161
000220 22 8c b8 bc 89 3c 6e bd 00 7f eb 3c ca 92 0b bd
       -0.022527758 -0.0581632 0.028747082 -0.034075536
000230 31 f1 37 3a 14 97 e8 ba b3 d4 64 bd 6c 8b f8 3c
       0.00070168363 -0.001774522 -0.05586691 0.030339919
000240 f4 62 5b 3d 0d a4 81 bc e1 cb 8f bc b8 0b 10 bd
       0.053561166 -0.015825296 -0.017553272 -0.035167426
000250 82 c7 e7 bc 26 5d cc 3c 65 ed 10 3d 46 55 cf bc
       -0.028293375 0.02494676 0.035382647 -0.025309216
000260 bd 29 fd 3a 17 ad f9 bc 3b de 09 bd e6 4c ad 3c
       0.0019314807 -0.030478043 -0.0336592 0.021154832
000270 c5 e4 c7 bc df 2a 56 bd f7 e4 1e 3d 6a 21 e3 3b
       -0.024401078 -0.05228698 0.038792577 0.0069314735
000280 e7 93 6e 3c 92 77 eb bc e7 71 11 3d ea 7a 4f bd
       0.01456163 -0.028743539 0.035509016 -0.05065433
000290 18 9e 3c b9 50 c2 2d 3b 8c b9 1b 3d cb 85 ee 3c
       -0.00017987972 0.0026513524 0.03801875 0.029116532
0002a0 48 14 0a 3c 53 77 c0 3c a7 45 29 bd 27 6e d3 bc
       0.008427687 0.023494398 -0.04132619 -0.02580936
0002b0 55 c3 44 3d 47 c8 aa bd a7 dc 5f bc 91 67 f8 bb
       0.048037846 -0.08338981 -0.013663447 -0.0075807055
0002c0 76 2d 1a bd 56 b3 ef bc 36 ed e3 bc 66 5b 9e bc
       -0.03764101 -0.029260319 -0.027823072 -0.019330692
0002d0 2b 90 1a bc 07 2f 08 bc 07 9f f9 3c 05 ac 8d bd
       -0.009433786 -0.008311993 0.030471338 -0.06917576
0002e0 f0 05 4f 3c 95 fd 12 bc 2d cf 1e 3d af f0 05 3b
       0.012635693 -0.0089715915 0.038771797 0.0020437648
0002f0 73 46 56 bd e5 63 18 3d 80 ac 03 3c 55 e1 56 3d
       -0.05231328 0.03720464 0.008036733 0.052460987
000300 0b f7 c1 3a c0 90 58 3c 6d 3f 9f bc 7c ef 8d 3c
       0.0014798356 0.013218105 -0.019439423 0.01732611
000310 71 ac e5 3c 11 56 80 3d 18 73 06 36 a4 c9 37 bd
       0.028036328 0.06266416 2.003455e-06 -0.044870034
000320 7a e2 20 3a 12 0b 45 3d 6c 91 63 bd 2a c2 2a 3c
       0.0006137263 0.04810626 -0.055558607 0.010422269
000330 0c 0b 2d bd d9 0d 7c 3a 43 cc c3 3c 1d 81 4a bd
       -0.042246863 0.00096151006 0.02390111 -0.04943954
000340 c1 ea 21 bd 5d 48 4a bd 92 e9 f6 bb c3 e0 c3 ba
       -0.03953052 -0.049385417 -0.007535168 -0.0014944304
000350 a7 17 d1 3c b6 d4 c3 3b 22 71 9e 3a 02 91 64 3d
       0.025523974 0.005976285 0.001208816 0.055802353
000360 95 08 16 3d 30 7b 16 3d 85 25 c4 bd d3 46 3f bb
       0.03662928 0.036738575 -0.09577469 -0.0029186502
000370 fe d2 18 bc d4 0c 1d bd 91 3f 65 3d 18 60 62 bc
       -0.009327648 -0.038342312 0.055968825 -0.013816856
000380 f1 30 ed 3c 9d 36 a8 bc 4a ff a9 bc ec f4 36 bc
       0.028954001 -0.020533854 -0.020751614 -0.011166792
000390 50 b6 f9 3c 8e 3a 2b bd 60 da 0e 3c 59 fd 06 3d
       0.030482441 -0.04180389 0.008719057 0.032956455
0003a0 00 17 19 3d 16 6a 4e bd be a2 0a bc b2 9e 3b 3c
       0.03737545 -0.05039414 -0.008461652 0.01145141
0003b0 1e 60 f0 bd d3 81 82 3c ec 95 99 bc ea fb cb 3c
       -0.11737083 0.015931046 -0.018748246 0.024900395
0003c0 03 d2 b8 bc 82 47 e8 bc 23 8f 40 3d 91 ff 5d bd
       -0.022561079 -0.02835441 0.047011506 -0.054198805
0003d0 2e 40 a0 3d 57 b6 3a 3d 65 1d 49 3b 63 11 79 bd
       0.07824741 0.04558405 0.0030687687 -0.060807597
0003e0 23 24 91 3c ea 8c 97 bd 5f 67 11 3d 93 f6 26 bc
       0.017717427 -0.07399924 0.035498973 -0.010190624
0003f0 74 a5 cc bc fb 03 99 3b 53 ef 2a bd f0 0c 14 3c
       -0.024981238 0.004669664 -0.041732144 0.009036288

conv1.lins.1.weight f4 [64, 778]
000000 6b 33 82 3d e0 fa e9 bc 56 34 07 3d 52 35 90 3c
       0.063574634 -0.02856201 0.033008896 0.01760355
000010 0e 50 02 3b 59 70 98 3b 6e 35 d6 b9 d4 e4 e8 bb
       0.0019884142 0.0046520648 -0.0004085707 -0.0071073566
000020 2d c9 b0 bb 72 48 9a bc 4a 6c 63 bc 34 b5 03 bc
       -0.005395076 -0.018833373 -0.013880799 -0.008038808
000030 76 e9 b0 3d ab 3d b3 bb 2d 48 63 3d 0c 4d 85 bc
       0.08638279 -0.005469998 0.055488754 -0.01627209
000040 0b bf 6d 3c a1 85 e4 bb ac c9 de bc 62 ae 73 3d
       0.01451088 -0.0069739376 -0.027195774 0.059492476
000050 cd 81 0f 3d de 32 8e 3b bf 95 be b8 98 9b b6 bb
       0.035035897 0.00433956 -9.0877984e-05 -0.0055727474
000060 1c 44 50 3b 9a fb 14 3c 8c 74 ea bc d9 ea ec bc
       0.0031778878 0.00909319 -0.028620027 -0.028920578
000070 85 f5 f9 3c ab f2 d9 bc 6d 45 37 bd 93 38 0d bc
       0.03051258 -0.02660497 -0.044743944 -0.008619445
000080 eb 86 6e bc 31 56 b8 bb 7d ef a3 3c e7 67 66 bc
       -0.014558534 -0.005625509 0.020011658 -0.014062858
000090 0a 41 e4 bb 06 23 1f bb ec a4 08 3c 85 a6 6d bc
       -0.006965761 -0.002428235 0.008340102 -0.014505033
0000a0 19 72 4c bd fc f6 d4 3c 88 0d e8 bd 98 f9 22 3d
       -0.0499135 0.025996678 -0.11330706 0.039788812
0000b0 90 17 1d bd 0e 0f 9e bc a8 77 87 bc 86 48 c9 3c
       -0.03835255 -0.019294288 -0.016536549 0.024570715
0000c0 7f fe 43 3d 5e f8 b7 bc 7d fc 28 3d b5 3e 57 bd
       0.04785013 -0.022457298 0.041256417 -0.052550036
0000d0 55 de eb 3c ca 68 40 bd 31 23 58 3c 14 6e 95 3c
       0.02879254 -0.046974935 0.013191984 0.018240966
0000e0 1d 78 1e bd 5e 45 94 bd b9 47 78 bc 92 4c 20 bc
       -0.038688768 -0.07239793 -0.015153819 -0.009783881
0000f0 0f ac 3e 3d 83 24 b0 bb 8b 52 25 bc df 00 18 bd
       0.046550807 -0.0053754463 -0.010090481 -0.037110206
000100 83 d9 7a 3b 38 b1 99 bc 4d 6e 01 bc 3b e5 2f bd
       0.003827662 -0.018761262 -0.007899833 -0.04294322
000110 20 1b 39 3d cb 44 29 3d 58 21 00 bd 12 84 20 bc
       0.045191884 0.04132537 -0.0312818 -0.009797113
000120 75 01 16 bc d3 1e 24 3d d3 6a 5c bc 7f 0f 93 3c
       -0.009155621 0.04006846 -0.013453203 0.017951725
000130 5f 86 55 bd 6a 23 26 3d 0a 25 c6 3c d9 e4 21 bd
       -0.0521301 0.040561117 0.024187583 -0.039524887
000140 be 73 77 3c 74 cd 8c bc 66 5a 65 bd 74 10 2e 3c
       0.015103279 -0.017187811 -0.055994414 0.01062404
000150 82 dd ba bd b8 99 b7 bc a8 85 a1 3c 39 b8 5b bd
       -0.091242805 -0.022412166 0.019717053 -0.053642485
000160 14 0e 89 bd 66 9b 46 bd 8f f6 23 3d 5b 06 06 bc
       -0.06692138 -0.048488043 0.04003006 -0.008180226
000170 be 00 df bc 19 94 6a bd c8 b7 60 3d b4 da 85 3c
       -0.027222034 -0.057270143 0.054862767 0.016339637
000180 ed f4 f4 3b fe 7e a6 3a 82 b7 4d bc 51 98 f9 bb
       0.0074754865 0.0012702642 -0.012555959 -0.0076170345
000190 88 33 39 3d fb ca 8e bc 3c a4 c5 3d 5b 10 0c bd
       0.04521516 -0.017430773 0.09650466 -0.034195285
0001a0 d9 48 1a 3d 97 6f cb bc 06 ff 99 3c 9b 88 c0 3c
       0.03766713 -0.024833484 0.018798362 0.023502639
0001b0 60 3b 15 3d d6 47 9a 3c e9 71 7d 3c f1 5d 91 bc
       0.036433578 0.018833082 0.015469053 -0.01774499
0001c0 ed 21 14 bd 60 32 8f bb fb 8b 3d 3d cb e5 1c bc
       -0.036165167 -0.004370019 0.046276074 -0.009576271
0001d0 e0 c7 45 bd 64 c6 72 3c da cd bc 3c 96 17 74 3c
       -0.04828632 0.014817808 0.023047376 0.014898201
0001e0 ef 52 90 bc 94 0d b6 3d 3c 86 0c bd 0f 95 48 3d
       -0.01761767 0.088893086 -0.034307703 0.04897028
0001f0 1b e2 1c 3d ff 6a 9c 3c 9f f3 67 3c fd 24 c2 3c
       0.03830157 0.019093988 0.014157205 0.023699278
000200 1b 22 19 3d 68 4a e6 bc 8a ff b0 bb ca a0 6f 3c
       0.03738604 -0.028111652 -0.0054015564 0.014625737
000210 2f f5 20 bd 48 54 2f bc 04 3d 90 3c fa c8 66 bc
       -0.039296325 -0.010701247 0.01760722 -0.0140860025
000220 cf 11 2d 3c 9b ab 80 3c d2 38 5f 3c a3 83 cc bc
       0.010563328 0.015706828 0.013624387 -0.024965113
000230 86 33 97 3c 85 09 39 bd 67 b4 9b 3d 47 c5 3c 3c
       0.018457185 -0.045175094 0.076027684 0.011521644
000240 69 76 f4 bc f8 0d 1a bd 02 c5 00 3d 84 ed 90 bc
       -0.029841619 -0.037610978 0.03143788 -0.017691381
000250 9a 0e 4c 3c dd a6 e6 3b 05 68 b8 bc fa 73 d0 3c
       0.012454653 0.0070389346 -0.022510538 0.025445927
000260 01 4f c0 ba 6b 15 6c 3c f9 44 10 3b 6a c8 0d bc
       -0.0014671982 0.014409403 0.0022013767 -0.0086537395
000270 68 9c ae bb 2e 53 9d bc 96 e6 e4 bc ca ca c1 3c
       -0.0053287037 -0.019204702 -0.027941983 0.023656268
000280 49 58 bb bc 83 aa de 3b 61 fe 3f bd ee 44 da bb
       -0.022869246 0.006795229 -0.046873454 -0.006661049
000290 eb 81 9d bb 88 4d fe bc 99 57 53 bd cc 14 13 bc
       -0.004806747 -0.03104283 -0.05159721 -0.008977126
0002a0 5e 58 df bb b2 a3 03 bc 0d 6f 93 bc 69 37 2e bb
       -0.006815954 -0.0080346335 -0.01799729 -0.002658332
0002b0 c0 f6 2d 3d 45 da 27 bd 86 f9 87 bc 91 58 cd bc
       0.042471647 -0.040979642 -0.016598474 -0.025066646
0002c0 35 40 e2 bb 3c b6 b2 bb 0c 4a f1 bb 23 d3 aa 3c
       -0.0069046267 -0.005453853 -0.0073635634 0.020852631
0002d0 a0 12 80 bc 2d 59 ce 3c 5f 61 b5 3c d6 96 8b 3c
       -0.015633881 0.025189007 0.022141157 0.017039698
0002e0 01 53 36 3c 2f 5c 87 3a 15 25 4d 3b 3c df e9 3c
       0.011128188 0.0010327155 0.003130262 0.02854883
0002f0 b5 a4 86 3a 20 65 16 3d 7c c2 f3 bb 2f 26 f7 bc
       0.0010272475 0.036717534 -0.007438956 -0.030169575
000300 c8 c8 25 3d 51 ed ed bb 10 9d 99 bb 74 4f 6b bd
       0.040474683 -0.0072609563 -0.0046879128 -0.05744882
000310 9d 13 14 bd 38 fd 2a bb 61 03 8a 3c 6f f2 7d bc
       -0.036151517 -0.0026090872 0.016847314 -0.015499695
000320 8b 35 a3 bc ab e2 02 bb 39 f2 21 bc 8c 36 8a 3c
       -0.019922992 -0.001997153 -0.009884411 0.016871713
000330 d6 ac b5 bd 1b b8 87 3c 76 86 65 3d 96 67 b0 bc
       -0.088708565 0.01656728 0.056036435 -0.021533769
000340 ae a7 01 bd 51 4d 80 bc 4a 4c 8f bd 47 c9 87 3c
       -0.031654052 -0.015661867 -0.06996973 0.016575469
000350 ce 55 03 3d 09 82 7b 3c fe d7 86 bc e1 2d 06 3c
       0.03206425 0.015350827 -0.016460415 0.008189649
000360 a3 76 ed 3b bb df 07 3b 29 0c 84 bc 13 25 d7 bc
       0.0072468086 0.002073272 -0.01611908 -0.026262796
000370 35 fd 01 3c 64 46 da 3c 37 66 23 3d 8b 73 a5 3c
       0.007933904 0.026644893 0.0398924 0.020196697
000380 90 49 ca 3c 63 60 51 3d 16 a9 cc bd 94 eb ad 3c
       0.02469328 0.051117312 -0.09993188 0.021230496
000390 31 1c bc 3c 8a c6 26 bc 78 a0 e3 bc 3d fb 1c 3d
       0.022962661 -0.010179171 -0.027786478 0.038325537
0003a0 44 85 c4 ba d3 35 71 3a d7 e1 bc 3b 87 59 4e bc
       -0.001499333 0.0009201441 0.005764227 -0.012594587
0003b0 bf 28 2e bd 31 9b 9c ba ed ae 8f 3c 6c 55 82 3c
       -0.042519327 -0.0011948106 0.017539466 0.015909873
0003c0 19 e4 cc bb 25 a0 2b bc 61 6c 03 3d 94 33 1b 3d
       -0.0062527773 -0.010475193 0.03208578 0.037890986
0003d0 53 33 00 bd 19 16 25 bc 39 9f 06 3d fb 9b 99 bd
       -0.031298947 -0.010076069 0.03286669 -0.07500454
0003e0 35 9f f2 3b 65 f0 c9 bc ee 92 28 bc 13 e1 db bc
       0.007404233 -0.024650762 -0.010288937 -0.026840722
0003f0 aa 29 05 ba 90 4a 11 3d 85 1b cf 3c b3 1d e3 bd
       -0.0005079756 0.0354715 0.025281677 -0.11089649

conv1.lins.2.weight f4 [64, 778]
000000 c1 a5 5f 3d 0c da 87 3d 9d d1 fc bc 65 f1 ac bc
       0.054601435 0.06633386 -0.03086167 -0.0211112
000010 c3 5d 31 3c d1 c3 e6 bb 12 72 f0 3b dd 82 a0 bb
       0.010825577 -0.007042386 0.007337817 -0.0048984126
000020 92 8b 65 39 18 dc 24 3d da 0d ea bb 10 71 5e bc
       0.00021891136 0.04024896 -0.0071427645 -0.013576761
000030 f9 77 86 bd 55 e4 8f bc c3 d3 e7 ba 19 38 a6 3c
       -0.06565852 -0.017564932 -0.0017687011 0.020290421
000040 55 64 c1 bc 32 77 cd bd 94 76 d3 bc 02 44 3a bb
       -0.023607412 -0.100325 -0.025813378 -0.0028421883
000050 a8 90 2c bd 01 6b c1 3a 36 c0 28 bd b2 0d 9b bc
       -0.042130142 0.0014756621 -0.04119893 -0.018927429
000060 01 ba 96 3c 9c 5c 3c bc 96 24 93 3c a5 3a 5d bd
       0.01839924 -0.011496689 0.017961781 -0.054011006
000070 37 a4 5e bd 5b bb c6 bc 6a c6 58 3c 21 fd 04 3d
       -0.054355826 -0.02425926 0.013230899 0.032467965
000080 87 72 39 3c 83 7d fb bc 64 aa 3f 3b bb db c9 bb
       0.011318809 -0.030699497 0.0029245848 -0.006160227
000090 88 33 ac bc 71 33 02 bc 80 37 27 bd b5 9a 11 3d
       -0.021020666 -0.007946835 -0.040824413 0.03554793
0000a0 a7 bc 80 3c 6b 01 1d bc 06 8f 91 bd 74 5f 23 3d
       0.015714956 -0.009582858 -0.07107358 0.039885953
0000b0 c1 de 21 3d 84 37 77 bc 3a 30 04 3c f7 04 61 bd
       0.039519075 -0.01508892 0.008068139 -0.054936375
0000c0 01 76 3e 3b fc d7 98 3c 84 9c 8b 3d bc 23 0d bd
       0.0029062035 0.018657677 0.06816962 -0.034457907
0000d0 07 26 12 bb 10 e6 60 3d d7 a6 77 3d 02 8b 88 bb
       -0.0022300498 0.054906905 0.060461845 -0.0041669616
0000e0 62 db 1e ba ad 3d d2 bc 2a 97 2a bc 32 79 97 bc
       -0.0006059912 -0.025664175 -0.010412017 -0.018490408
0000f0 33 27 2f bd 25 48 55 3a da 05 f7 bc 9b 56 63 3c
       -0.042761993 0.00081360555 -0.030154157 0.013875629
000100 ec f1 b6 3b 4f d8 ba 3b ef 5f ff bc ee b8 ea 3c
       0.0055830386 0.0057020555 -0.031173674 0.028652634
000110 05 68 5b 3d 80 e1 22 3d f4 1b da 3b 7b 55 41 3c
       0.053565998 0.039765835 0.0066561643 0.011800165
000120 8e 03 ff bb 16 b9 0f 3d f5 a3 99 bd e7 56 89 3b
       -0.007782406 0.03508862 -0.075019754 0.004191268
000130 93 7b 35 bc 1f e9 28 bd 60 2e 57 bb ea 1d 5d bd
       -0.011076826 -0.041237947 -0.0032834038 -0.053983606
000140 4d ba 3d bb 9c 35 a9 3c b9 f8 1e 3c 98 b8 a5 bc
       -0.0028950155 0.020655446 0.009702855 -0.020229623
000150 9a 47 d5 3d 3c 8c df 3c 6e 46 1c 3d bc f6 7d 3c
       0.104140475 0.027288549 0.038153104 0.015500721
000160 fc 7f 97 bc 16 9a eb 3c a9 bd 0f 3d b2 c1 ae 3d
       -0.018493645 0.028759997 0.035092983 0.08533038
000170 6b 7f 81 bc 7a 4c 33 39 59 4b 55 3d 25 18 e2 bc
       -0.015807828 0.0001709926 0.05207381 -0.027599404
000180 a0 1b 90 3c 40 bb 89 bb bf b2 74 bd 66 56 29 3c
       0.017591298 -0.00420323 -0.059740778 0.01033554
000190 ce d9 26 3d 64 cf 02 bc 11 07 c0 3c 2d cd 77 3d
       0.04073506 -0.007984016 0.02344087 0.060498405
0001a0 52 03 d4 bb dc c0 8f 3d 0b 64 81 3d 0d ab 20 bb
       -0.0064701224 0.07019207 0.0631791 -0.0024516017
0001b0 59 09 ca bc d4 c9 9b 3c e2 73 b4 3d d3 1b 6c 3a
       -0.02466266 0.019017138 0.088111654 0.00090068317
0001c0 c5 e1 84 bd 71 d6 ce bc d2 86 84 3d 5b cb 33 3c
       -0.064883746 -0.025248738 0.064710274 0.010973777
0001d0 df bf a0 3c 7e 9e 0d ba 8f 49 8b bc 4e 78 8d 3d
       0.019622741 -0.00054023403 -0.017002849 0.06907712
0001e0 e3 f3 03 3d e7 ca b2 b9 e9 c1 a6 bd c0 27 8d 3d
       0.03221501 -0.0003410198 -0.08142454 0.06892347
0001f0 7e 6d bb bc 75 97 06 bc 23 29 d6 bc cd ed d4 3c
       -0.022879358 -0.008214821 -0.026142662 0.025992298
000200 d7 67 a5 3b 91 38 a0 3d 11 04 a8 bb a2 82 07 3d
       0.005047779 0.07823289 -0.005127438 0.033083566
000210 d8 41 1a 3c 78 09 fa 3b b6 b5 7e bc 06 bf ea 3c
       0.009415112 0.0076305233 -0.015546253 0.02865554
000220 d3 d8 16 3d e9 f8 4c bc 5d 8b 97 3c 35 9d 84 bc
       0.036827873 -0.012510517 0.01849907 -0.016188243
000230 da b6 a6 3c e9 81 16 bd 0a 22 07 bd 36 76 96 3c
       0.020350862 -0.036744986 -0.032991447 0.018366914
000240 bb c1 21 bd 90 cf 82 bd 59 dc 3c 3d f1 85 8a 3b
       -0.039491396 -0.06387246 0.046108577 0.004227393
000250 75 09 c1 bc ab cb 19 bc 7e 58 2d 3d 63 11 88 3a
       -0.02356408 -0.009386937 0.04232072 0.0010381158
000260 e0 80 24 bd 5e 3c 91 3c 09 b7 e1 3c a2 16 24 bd
       -0.040161967 0.01772898 0.027553098 -0.040060647
000270 41 89 03 3c 1a bb 11 3c 5e de 44 bc ad b4 64 bd
       0.008028329 0.008894706 -0.012015907 -0.05583637
000280 ff 2c be 3d ca fa 0f 3c 3b 7c 88 bc 53 61 08 3c
       0.09285926 0.00878782 -0.0166608 0.008323985
000290 a9 c2 df bb bc 9d b6 3c b7 5c e5 bc 62 ad d3 bc
       -0.006828625 0.02229201 -0.027998311 -0.025839511
0002a0 2b 2d 8e bc 2e 60 f8 3b b6 ce 99 bc 7d 96 5a 3d
       -0.017355522 0.007579825 -0.018775325 0.053366173
0002b0 ba 51 49 3d 4e 2f 4f 3d 5a 7d 43 bc cf ed ef 3c
       0.049150206 0.050582223 -0.011931742 0.0292882
0002c0 96 83 37 3d 1d 02 bf 3b 8d 4d 31 3d fa a8 3e bc
       0.044803225 0.0058291093 0.04328685 -0.011636967
0002d0 7f d9 7a 3c f1 ef b8 3c 4e 07 15 bd da b4 26 bd
       0.015310644 0.02257535 -0.03638392 -0.040699817
0002e0 bf 82 47 3d 00 bb f1 3c 6b c4 a8 bb 88 93 3e bd
       0.048708674 0.029508114 -0.005150368 -0.046527416
0002f0 64 89 23 3d 27 47 03 bb 12 79 d6 3c 04 c4 12 bb
       0.039925948 -0.0020031424 0.026180778 -0.0022394666
000300 67 cf 05 bc 2f 9e 3f 3c 63 b6 d4 3b ad be 3d 3d
       -0.008167124 0.011695429 0.0064914688 0.04632442
000310 4d bb 88 3c d1 c7 84 3d 78 e1 19 bb 86 f9 db bc
       0.016690874 0.064834245 -0.0023480337 -0.02685238
000320 38 34 35 bc d9 37 b9 bc 34 74 12 3c fa 12 af bc
       -0.011059813 -0.022609638 0.008938838 -0.021371353
000330 31 db fa bb d1 9e 84 3c c6 34 ac 3b 3d 80 40 3d
       -0.007655524 0.01618901 0.0052553145 0.046997298
000340 d8 86 c6 3c 45 b1 e5 bc 2e 27 90 bd be 70 d8 bc
       0.02423422 -0.02803863 -0.07038723 -0.026420947
000350 55 ef e0 bb ed 2a 82 3a 23 99 18 3c 74 e7 fd bc
       -0.006864468 0.0009931006 0.009313854 -0.030994155
000360 07 9a 16 bb 86 5c 43 3c 2f fa 2f bb df b7 77 3c
       -0.002297999 0.011923915 -0.0026852002 0.015119522
000370 d3 3c 48 3c 4b ad 38 3d 30 81 a7 3c 6f e4 87 3d
       0.012221533 0.04508714 0.020447344 0.06635367
000380 e5 b4 c5 3c 36 be 8c 3c fa 79 e4 bb 0c 17 30 3d
       0.024134109 0.017180543 -0.0069725486 0.04299073
000390 82 6a 99 bc 4c 06 c8 3c 22 fa a2 bc 74 c8 3f bd
       -0.018727545 0.024417065 -0.019894663 -0.046822026
0003a0 80 62 c1 3b ed 05 c8 3c c0 b3 aa 3c 07 8f 36 3c
       0.0059016347 0.024416888 0.020837665 0.011142499
0003b0 89 a7 a9 3c 61 91 cf bb c1 d4 04 bc 41 cd 06 bc
       0.02070977 -0.006334469 -0.008107365 -0.008227647
0003c0 06 23 c8 3c 39 c8 3e 3d 3a 68 7b 3b 54 90 86 bc
       0.024430763 0.046577666 0.0038361684 -0.016426243
0003d0 f3 8b 2d bd 43 9b 17 bd 81 54 43 3d 13 21 88 bc
       -0.042369794 -0.037013303 0.04768801 -0.016617334
0003e0 55 8b 47 3d 7b 96 2b 3d 51 f5 02 3d 44 e2 70 3d
       0.04871686 0.041891556 0.031972233 0.058809534
0003f0 d7 d5 07 3b 94 59 96 3c 70 3e 08 bc ae c7 8d 3d
       0.0020726824 0.018353261 -0.0083156675 0.069228515

conv2.bias f4 [32]
000000 19 c1 3d 3d b4 3d 63 3d ec bd 11 3d 67 dc 2d 3d
       0.04632673 0.055478767 0.035581514 0.04244652
000010 a7 e1 09 3d 7a 9e f7 3c ef 34 e8 3b 90 b3 1f 3d
       0.033662464 0.030226935 0.0070863883 0.038989604
000020 24 ad 53 3c d2 34 43 3d 41 90 88 3c 4f a9 1b 3d
       0.012919698 0.047657795 0.016670348 0.038003262
000030 e6 fc 7c 3c 3d 77 e8 3c 1d 0e 1c 3d 39 33 8d 3d
       0.015441155 0.02837717 0.038099397 0.068945356
000040 95 a6 fa 3c 30 fa cd 3c 7e 7b 86 bb 88 78 4d 3c
       0.03059701 0.025143713 -0.004104077 0.012540944
000050 bd 78 28 3d e3 05 22 3c 00 59 18 bc e7 fb 72 3d
       0.04113077 0.009889099 -0.009298563 0.059322264
000060 db 2c 01 3d 3f 57 80 3d b3 00 d5 3c 7d c1 dc 3c
       0.031536918 0.06266641 0.02600131 0.026947731
000070 78 0b 60 bb bb c6 26 3c f2 d2 04 3d 77 d4 35 3c
       -0.0034186523 0.010179217 0.032427736 0.011098019

conv2.lins.0.weight f4 [32, 64]
000000 44 05 49 bb bd 5b 2e 3d a1 28 bd 3c 80 54 07 be
       -0.0030673305 0.042567957 0.023090662 -0.13215828
000010 86 49 90 b9 86 76 ab 3c e2 eb b8 bd 4d 0e b8 3d
       -0.000275206 0.02093054 -0.09029366 0.08987103
000020 7b b9 74 3c ac c0 e8 bd dd f3 37 3e 8c 4e 99 3d
       0.0149368 -0.11364874 0.1796412 0.07485685
000030 44 91 08 bc a0 bd 5b 3e f5 1e b9 3d fe c1 83 be
       -0.008335415 0.21459055 0.09039108 -0.25733942
000040 25 b5 d9 bc 96 ef ee bd a2 53 d2 3d 7e ad 38 bd
       -0.026575634 -0.11666791 0.10269858 -0.04508733
000050 bd 1f 39 be 2d 66 3f 3c a0 95 2d 3d 83 32 2b 3d
       -0.18078513 0.011682075 0.04237902 0.04179622
000060 1a be 8d bd a6 75 03 be 35 00 28 bd db 59 57 be
       -0.069210246 -0.12837848 -0.041015822 -0.21030371
000070 a6 c3 96 bd f3 a0 41 be ce 7e 44 3c b1 ae 2e 3e
       -0.07361536 -0.18909054 0.011993123 0.17058827
000080 98 e6 56 bc 1c de 23 3e 36 ff 5c bc 82 ce a6 bc
       -0.013116501 0.16002697 -0.013488581 -0.020362142
000090 a5 94 19 3e 68 03 a1 3e b6 70 8b 3d 3d 31 7a bd
       0.1499811 0.3144791 0.06808607 -0.061082114
0000a0 cf 5d 2c be e4 7b 03 3e 41 79 4b be 46 6c 14 3c
       -0.1683266 0.1284023 -0.19870473 0.0090590175
0000b0 2c c6 e6 bd 7a 85 8a bd 83 a6 12 3c f1 45 7b 3d
       -0.11268267 -0.0676374 0.008950832 0.061346
0000c0 b3 79 9f 3c e0 01 b3 3d 07 6a de bb b7 05 2e 3d
       0.01946721 0.08740592 -0.006787542 0.04248592
0000d0 41 40 9a bd 1d dd 88 b8 f4 84 b9 3d 17 2a b7 bc
       -0.07531787 -6.526171e-05 0.09058562 -0.022358937
0000e0 7e b1 2b 3e 99 27 06 3e e9 f9 1e bd fa c4 e4 bd
       0.16766927 0.13101043 -0.03881255 -0.11170383
0000f0 0b 9b ed 3e 9b a0 f8 3b b2 f7 9c bd 7d 5d ce 3c
       0.4640735 0.007587505 -0.07664432 0.025191063
000100 92 12 97 bb aa 68 8b 3d 68 46 a8 39 12 b2 38 be
       -0.004610368 0.068070725 0.00032095914 -0.18036678
000110 1a bc b9 b9 ae 8f 7b 3d 1c ad 5d 3c 01 fc 7b 3e
       -0.00035426096 0.06141632 0.013530042 0.2460785
000120 f4 0d f4 3b d6 a8 5c bd 0b 75 c7 3b 09 28 01 3e
       0.0074479524 -0.053871952 0.0060869507 0.12612928
000130 ba 84 9e 3d 43 d7 57 bd 4d ae 17 3d d9 25 3b be
       0.07740159 -0.052695524 0.03703146 -0.18276156
000140 ae b9 9a bc e8 5d 17 bc 23 f0 13 bd 18 3e 77 bd
       -0.018887367 -0.009238698 -0.036117684 -0.06036195
000150 5c c4 9e bd 89 7b 97 bd 39 f8 c6 bb 77 36 0d 3e
       -0.07752296 -0.07396609 -0.006072071 0.13790308
000160 89 8c 0c bb c7 a5 24 bd 03 2c 62 bd f6 6b 16 be
       -0.002144607 -0.04019716 -0.055217754 -0.14689621
000170 b3 a8 2a 3e b3 4e 54 be f6 5a ea 3c 1a 99 9d bd
       0.16665916 -0.20733146 0.028607827 -0.076952174
000180 70 41 fa bd 72 43 f4 bb a3 9c 39 3b 98 ec fe bd
       -0.122195125 -0.007454329 0.0028322123 -0.124474704
000190 ae a0 5c bb 1c c2 96 3d 5e ea 85 3d db f4 bb bc
       -0.0033665108 0.07361242 0.065388426 -0.022943905
0001a0 a0 72 36 be 58 22 91 3d a1 a0 39 be 3c 9a 97 3d
       -0.17817163 0.07086629 -0.18127681 0.07402465
0001b0 37 9e dd bd 86 8f 6b 3c 81 85 1e 3c f3 5a 17 bd
       -0.10821193 0.01437748 0.0096753845 -0.03695197
0001c0 c3 1f 84 3d 98 5a 87 ba 0a ea 46 3e b5 84 1f 3d
       0.064513706 -0.0010326682 0.19425216 0.03894492
0001d0 a1 4b 78 bd 8d 14 48 38 cc b4 23 3e db b8 03 3d
       -0.060619 4.7702855e-05 0.15986937 0.032158714
0001e0 5d 6a c9 3d ff a6 6a 3d 3a 92 ac bd 8e ea 60 bc
       0.0983474 0.057288166 -0.08426328 -0.013727797
0001f0 c0 da 76 bd 81 40 12 3d d2 dd be bb b8 27 6b 3c
       -0.06026721 0.035706047 -0.005824783 0.014352731
000200 3d 01 c5 3c 0c 82 8e be f7 21 95 3e 3e d0 0e be
       0.024048442 -0.27833593 0.29127476 -0.13946626
000210 48 5e d2 b9 44 7e 79 3c e2 2e 0e 3e 29 78 d0 bc
       -0.00040124566 0.015227858 0.13885072 -0.025447922
000220 24 b2 17 bd 39 ab 38 3d a4 b3 80 bb be ce 72 be
       -0.037035123 0.045085166 -0.003927665 -0.23711678
000230 6f 50 04 be 65 d7 fb 3d bb a6 23 be b9 02 45 3c
       -0.12921308 0.122969426 -0.15981571 0.012024575
000240 a5 7a 85 be ea dd c7 3e bc 47 b5 3e c6 18 56 be
       -0.26070133 0.39036494 0.3540629 -0.20907888
000250 3d ae 4d 3d a4 f9 43 3d 08 03 64 bd 0f 14 57 bc
       0.050214995 0.047845498 -0.055666953 -0.013127341
000260 2f 2b 25 3e fd c1 bb 3e 24 e8 cb 3e 01 1d 17 3e
       0.16129754 0.3667144 0.39825547 0.14757158
000270 35 8f 1e be 9d 4a ac be 1e bc fb 3c f4 62 ec 3c
       -0.15484317 -0.33650675 0.03072935 0.028855778
000280 ed b0 36 3d 7e ab 66 bd ef 80 08 3d 87 ad 05 3f
       0.044602323 -0.05631589 0.033326086 0.52217907
000290 52 b6 9f 3e e5 c9 d9 3e e8 42 d3 bd 9e 4d 39 3e
       0.31193787 0.42536846 -0.10315496 0.18096015
0002a0 b4 b7 9d be 18 7a e3 bd 86 3e 84 3e 5c f0 96 bc
       -0.30804217 -0.11107272 0.25828952 -0.01842516
0002b0 05 36 c2 3d 0b 81 92 3d 13 da e2 3c 90 b6 8c 3e
       0.0948296 0.07153519 0.027691877 0.27483034
0002c0 90 61 3d 3e 9d f2 10 be af 94 b2 39 76 9b 5e 3e
       0.18494248 -0.1415505 0.00034061584 0.21738991
0002d0 c9 05 3a be 04 b6 29 3a 21 ef 4d 3e 34 6b 4f 3d
       -0.1816627 0.0006473961 0.20110752 0.050639346
0002e0 91 bd 81 bd 9d c1 5f be 12 1d f4 3c 32 d5 26 3b
       -0.06334985 -0.21851201 0.029799018 0.0025456664
0002f0 83 a5 5a 3d 53 92 05 bd 76 3c 80 3d d2 68 bd 3c
       0.0533805 -0.03261025 0.06261532 0.023121271
000300 f3 d5 fa 3a 80 bf 0b bb 6c 39 e0 3c bb bc 11 be
       0.0019137248 -0.002132386 0.02737113 -0.14232151
000310 22 c5 be b9 a3 75 31 3d e2 17 1f 3c 52 1d 10 3e
       -0.000363865 0.043325078 0.009710284 0.14073685
000320 f9 b5 cd b8 55 45 4c bc 93 c6 bb bc 1f 73 0c bc
       -9.809057e-05 -0.012467702 -0.022921836 -0.008572369
000330 57 25 0b 3d 5d 9c 36 bd fa f1 de 3b ae 88 b8 bd
       0.033971157 -0.044582713 0.006803748 -0.090104446
000340 64 71 17 bd 4f 87 94 3c 4e 7b c1 bb de e9 b4 bc
       -0.036973372 0.018130926 -0.0059045916 -0.022084173
000350 45 f0 b1 bb 9b f2 30 bd 3c 2e 0d bc 13 2f 53 3d
       -0.0054302537 -0.043200117 -0.00861698 0.051558565
000360 82 38 ca 3b 18 ba d5 39 53 fa 67 3b 99 63 f4 bc
       0.006171287 0.00040765177 0.0035397008 -0.029832648
000370 12 e7 4c 3d 4a 39 fa bd 48 90 52 3c 37 ac 9a bd
       0.050025053 -0.12217958 0.012851782 -0.075523786
000380 94 fa f0 bc 7d 53 4c bc cf 1f 3f 3b ed 60 ff bc
       -0.02941636 -0.012471077 0.0029163247 -0.031174148
000390 37 97 a3 ba 6a 95 8c 3c d9 88 84 3c 8e 98 55 39
       -0.0012480979 0.01716109 0.016178535 0.00020370094
0003a0 88 d3 aa bd 53 10 16 bc 4f f3 6e bd 6b 4d 19 3d
       -0.08341128 -0.009159165 -0.058337506 0.037427347
0003b0 27 df 87 bc 81 1a 4e 3d 8b b8 a3 3b c6 d2 6c bb
       -0.0165859 0.050318245 0.0049963645 -0.0036136373
0003c0 d5 64 26 3d 4a 34 2d bc 6f 85 95 3d 77 bb 02 3d
       0.040623505 -0.010571549 0.07300841 0.03191706
0003d0 98 86 05 bd 0d 1a 43 39 83 25 c9 3d 87 12 10 3d
       -0.03259906 0.00018606354 0.09821608 0.03517392
0003e0 3d 5e 40 3c 6a 01 ba 3b f5 48 ff bc b8 97 14 3b
       0.011741218 0.005676438 -0.031162718 0.002267344
0003f0 f4 ea 5f bd 8b 61 08 3c 94 db 69 3c f5 ea b9 3b
       -0.054667428 0.008324037 0.014273543 0.005673761

conv2.lins.1.weight f4 [32, 64]
000000 49 61 64 bd b4 ce dc bd e6 3d 68 bd eb 45 af 3c
       -0.05575684 -0.10781613 -0.056699656 0.021395644
000010 36 b0 00 3a 95 58 f0 bc 71 6d 04 bc 97 45 ad bd
       0.000490907 -0.029339114 -0.0080827335 -0.08460539
000020 86 e1 ad bc 98 0a 86 3c 9c 4c 0c bc a2 09 02 be
       -0.021225702 0.016362473 -0.008563187 -0.12698987
000030 59 bc d4 bd da 7c b2 3d 98 cc b5 bd d2 e0 31 3d
       -0.10387487 0.0871522 -0.08876914 0.043427296
000040 16 ff e0 bd 60 a6 3e 3d 5b e3 a3 3d e6 d4 4f 3d
       -0.10986154 0.046545386 0.08002349 0.050740145
000050 c0 ce 0e 3e d4 43 39 3d 53 27 1c bd 54 a3 fd bc
       0.13946056 0.0452307 -0.03812344 -0.03096167
000060 fc 61 da 3c c6 8e 07 3e 8b 70 9b 3d b0 2e 3b 3b
       0.02665805 0.13238057 0.07589825 0.0028561763
000070 b2 a3 0b be 7f 7f 89 3d 76 cd 98 bb 96 73 79 bd
       -0.13636664 0.06713771 -0.0046631647 -0.060901247
000080 cd 5d 99 3d 1e 2a 92 bd 92 cb 99 3b b3 52 7c 3d
       0.07488594 -0.071369395 0.004693457 0.061602306
000090 10 45 84 3d 84 fa 42 bb 92 af 6b bd 65 76 e8 3c
       0.06458485 -0.002975137 -0.057540484 0.028376767
0000a0 6e 4c c7 3d ba bd 16 be a5 f6 00 3e 86 df 8b bd
       0.09731375 -0.14720812 0.12594087 -0.06829743
0000b0 e4 7b 4f bd 6f 71 96 bc 2e df 0c bc a9 81 d4 bc
       -0.05065526 -0.018364636 -0.008598132 -0.025940733
0000c0 d9 1a 08 bb c1 ab b1 bd 05 7e bb bd dc a4 17 bd
       -0.0020767956 -0.086753376 -0.09154896 -0.037022457
0000d0 47 2a a2 3c a6 c2 ed b9 4d f3 4d bb f8 cd 18 3d
       0.01979555 -0.00045349187 -0.0031425536 0.037305802
0000e0 08 75 58 bd a7 54 13 be 60 4f a5 bc 40 d1 58 3d
       -0.052845985 -0.14387761 -0.02017945 0.05293393
0000f0 d9 28 dc bc 54 63 40 bd a6 bc 6e 3d eb 7e 6e bc
       -0.026874946 -0.046969727 0.058285378 -0.014556627
000100 94 82 ed ba 49 01 3c bd 1d 93 de bb 8a fc c8 3d
       -0.001812058 -0.045899663 -0.0067924396 0.09813793
000110 19 58 7b 38 17 fc 53 bd 13 8a 48 bc 63 95 53 be
       5.992511e-05 -0.051754083 -0.012239951 -0.20662455
000120 72 bb e0 bb 62 99 61 3d 2e 1c 81 3c 99 e2 f2 bd
       -0.0068582827 0.055077918 0.015760507 -0.11859626
000130 02 67 58 bd cd de 8a 3d 07 18 0c bd 0a f1 3e 3e
       -0.05283261 0.06780777 -0.0342026 0.18646637
000140 28 4d df bb 60 09 5d 3b 94 14 fa 3c 59 38 30 3d
       -0.0068146177 0.0033727512 0.03052739 0.043022487
000150 de e2 9f 3d 02 4d bb 3d 3a df 2e 3c 1c 0a e1 bd
       0.07806943 0.091455474 0.010673339 -0.10988256
000160 7a 5c bf b9 f9 cf 0e 3d 1f 5f 1e 3d 03 7c c1 3d
       -0.0003649926 0.034866307 0.038664933 0.094474815
000170 8f f7 fa bd 58 8c 31 3e 84 43 a9 bc 38 81 8f 3d
       -0.12254249 0.17338693 -0.020662077 0.070070684
000180 7c 18 f4 3d 89 df a3 3b 5d 4d 2b bb 90 01 f3 3d
       0.119187325 0.0050010127 -0.0026138641 0.118655324
000190 67 4a 2b 3c 36 86 33 bd 85 1f 48 bd 04 4c 97 3c
       0.010454751 -0.043829165 -0.048858184 0.018468864
0001a0 9e 77 ec 3d d0 69 51 3c 0c eb 27 3e 65 d8 9f bd
       0.11546253 0.012781575 0.16398257 -0.07804946
0001b0 a9 5d c2 3d 4c fa 33 bd 19 3b 01 bc d1 b3 84 3c
       0.094905205 -0.043939874 -0.007887625 0.016199024
0001c0 e4 82 75 bd 75 cd fc 3a a0 5e 28 be 5f e1 f6 bc
       -0.05993928 0.0019287305 -0.16442347 -0.030136762
0001d0 d8 d2 1c 3d de 12 3b 3a fe cd 1a be d4 56 d0 bc
       0.038287014 0.00071362953 -0.15117642 -0.025432028
0001e0 45 b3 bc bd 32 0f 46 bd 01 9b 8f 3d 23 da 76 3c
       -0.092138804 -0.048354335 0.070119865 0.015066656
0001f0 ce d2 08 3e 75 41 e6 bc f0 71 2f 3a af e2 4b bc
       0.13361666 -0.028107384 0.0006692698 -0.012444182
000200 06 0c af 3c 78 6d 0e 3e 56 e1 1e 3d 5d 51 04 3d
       0.021368038 0.13908947 0.038789116 0.032304157
000210 98 89 60 b9 e2 81 57 bc 14 d0 bf 3d b3 37 a5 3d
       -0.00021413562 -0.013153525 0.0936586 0.080672644
000220 6d 24 12 3c 05 be b5 bd 2e ec d1 3d 8b 39 e8 3d
       0.008919817 -0.08874134 0.10250126 0.113391005
000230 ec 4b 9b bd 8e 1a cc 3d f2 01 44 3e 09 65 ae bd
       -0.0758284 0.099660024 0.19141367 -0.08515365
000240 1a 08 5c bd 7e 32 3e be b8 e2 a8 bd 36 e1 8a 3d
       -0.053718664 -0.18573949 -0.08246368 0.06781237
000250 22 f2 2d bd b4 57 10 bd 62 74 32 bd ac cd bc 3c
       -0.042467244 -0.03523989 -0.043568023 0.02304729
000260 e1 37 0f bd 22 c0 b0 be ba 69 29 be 94 3b e4 bd
       -0.0349654 -0.34521586 -0.16544238 -0.11144176
000270 99 80 d5 ba 76 ef bb 3d 59 17 44 3c 8a e9 cf ba
       -0.0016288935 0.09176533 0.011968457 -0.0015862447
000280 63 4d 99 be 0d 81 59 3d 8b fb 3d bc f7 3f a6 be
       -0.29941854 0.053101588 -0.011595617 -0.32470676
000290 1c 76 68 3d 82 0b b6 3d 85 e3 d3 3d c8 5f 0c be
       0.056753263 0.08888914 0.1034613 -0.13708413
0002a0 84 fb 31 3d 22 2d 24 3a c3 6b 85 bc 94 74 62 bc
       0.043452755 0.0006262829 -0.016286736 -0.01382174
0002b0 66 3d 53 3d 75 fd 75 bd 7f 7a c5 3c b8 d1 54 bc
       0.051572226 -0.06005617 0.024106262 -0.012989454
0002c0 d3 2e 64 bc 62 59 7b bb 31 14 e7 bd 07 6b b0 3d
       -0.013927179 -0.0038352837 -0.11283148 0.08614164
0002d0 fd e0 e5 3c c5 b4 5f 39 dc 7f ab 3d e6 d0 c5 bb
       0.028061384 0.00021334279 0.083739966 -0.0060368655
0002e0 62 c4 f4 3d ea db 52 3e cd 1c d1 bd 91 19 92 bc
       0.119515195 0.20591703 -0.102105714 -0.017834457
0002f0 89 c8 ce 3d 4b 48 26 3e f6 2a 29 bd d5 34 89 3c
       0.10096843 0.16238515 -0.041300736 0.016748825
000300 30 d5 0d 3b ab 30 fd bb cd 15 bf b9 80 50 a9 3d
       0.0021641962 -0.007726749 -0.00036446602 0.08267307
000310 79 88 d8 b9 af 35 0d bd c6 ab 08 bb 92 58 d1 bd
       -0.0004130041 -0.034475025 -0.0020854338 -0.102219716
000320 c1 b2 ae 39 86 b8 2e 3c 8c 65 9e 3c 83 66 7d bd
       0.00033321048 0.010664111 0.01933553 -0.06186534
000330 f7 92 d5 bd 19 78 84 3d 93 ce 82 bb 71 f6 dc 3d
       -0.10428422 0.06468219 -0.0039919107 0.107891925
000340 15 d8 93 bb 9e e2 ba bb 92 2b 95 3b 5d 5c 3a 3c
       -0.004511843 -0.0057032844 0.004552313 0.01137456
000350 e9 d5 5c 3c 98 cc 4d 3d ee c3 0e 3b 84 a8 2e bd
       0.0134787345 0.050243944 0.0021784264 -0.042641178
000360 9d 23 6f bb 1f b7 8e ba ac 32 a9 b9 8c f0 e1 3c
       -0.0036489733 -0.0010888315 -0.00032271945 0.027580522
000370 57 16 b9 bd 18 76 7f 3d 0a f6 2a bc 02 6e 74 3d
       -0.09037464 0.062368482 -0.010434637 0.059675224
000380 09 36 ab 3c 5a 54 da 3b b7 eb e9 ba 01 72 c4 3c
       0.02089979 0.0066628875 -0.0017846738 0.023980143
000390 6f 8a 99 3b 29 38 10 bc 04 cf 84 bc 95 1c ff 3a
       0.004685692 -0.008802452 -0.016211994 0.0019463474
0003a0 76 a8 3d 3d b5 6f f4 3b 08 f8 a5 3d 2a 75 07 bd
       0.046303235 0.0074596056 0.08103949 -0.03307072
0003b0 43 64 1b 3d e3 51 56 bd 8f 5f 46 bb 73 a7 4d 3c
       0.037937414 -0.052324187 -0.003026936 0.01255213
0003c0 77 70 df bc 53 a2 34 3b 5f de 90 bd 23 69 ef bb
       -0.027275307 0.0027562573 -0.07073664 -0.0073062344
0003d0 eb 27 81 3c e8 c7 9c 38 2c e5 97 bd 32 fc c9 bc
       0.015766105 7.475895e-05 -0.07416758 -0.024656389
0003e0 c9 24 c4 bc 5f a6 e7 bb 28 dc af 3c 89 50 81 3a
       -0.023943322 -0.0070693935 0.021467283 0.000986592
0003f0 00 76 28 3d 2d b8 be ba 5b 22 02 bc 41 fe 17 bb
       0.04112816 -0.0014550738 -0.007942761 -0.0023192319

conv2.lins.2.weight f4 [32, 64]
000000 11 4e a5 3d 6d a2 14 3d e7 42 f0 3c 97 fc bb bc
       0.080715306 0.036287714 0.029328777 -0.022947593
000010 51 c4 15 b9 0e 8e e7 3c 07 ac 0e 3c b7 1a aa 3d
       -0.00014282881 0.02826598 0.008708007 0.08305877
000020 c6 3e 91 3c 63 12 d1 3a ca 74 01 bd 46 b4 a4 3d
       0.017730128 0.0015950914 -0.03160552 0.08042197
000030 9e 1c bc 3c 7f d2 00 3d f9 d7 ae 3d f5 da ee 3d
       0.022962864 0.031450745 0.08537287 0.116628565
000040 6f 65 26 3d 47 b1 17 3b a0 d0 13 bd 5b d6 4c 3d
       0.04062408 0.0023146437 -0.036087632 0.050009113
000050 43 b9 0d 3d ca de 49 bc 6d 97 0b bd 99 e3 5a 3c
       0.034600507 -0.012321183 -0.034079958 0.013359928
000060 7e 67 8e 3c d9 86 99 bc 56 eb 8e bd 63 31 08 bd
       0.017383333 -0.018741058 -0.069784805 -0.033250224
000070 e2 23 d6 3d 3c 76 da bc d9 5e c2 3c 36 be 1f 3d
       0.10456063 -0.026667707 0.023726868 0.03899976
000080 fb 80 89 3c 11 ff 72 3d d1 bd 40 b8 c8 fd 9b bb
       0.016785135 0.05932528 -4.5953147e-05 -0.0047604777
000090 e8 0c 33 3c 28 2f 8c 3d 2f 58 96 bb 56 70 4c bc
       0.01092837 0.06844932 -0.004588149 -0.012477955
0000a0 f5 ba b1 bc 91 ca 04 bb 8c 8b f5 3c c9 a0 85 3d
       -0.021695593 -0.002026234 0.029973768 0.06524808
0000b0 84 0b db 3c dd 5b 9b 3c e1 e0 2d 3c a4 fe 71 bd
       0.02673889 0.018964702 0.010612697 -0.059080735
0000c0 6e b3 ba 3c 0f 49 1d 3d 07 4c 10 3d 7c 94 69 3d
       0.022790637 0.038399752 0.035228755 0.05702637
0000d0 27 89 6d 3c f1 1a 24 ba 84 20 34 bd 88 a3 ec bb
       0.014498032 -0.0006260118 -0.04397632 -0.007221643
0000e0 19 51 ec 3c c2 63 f2 3d 8a de 1c bc 10 88 2a 3d
       0.028847264 0.118354335 -0.009574542 0.041633666
0000f0 b3 bc d4 bd 62 29 58 3d 23 90 ed bc 1f 3f dd 3b
       -0.10387554 0.05277384 -0.028999394 0.0067519094
000100 56 67 40 3c 9f 8b 14 3c 2a ed f4 39 ae 4a 24 bb
       0.011743387 0.009066491 0.00046716008 -0.0025068927
000110 71 bc 03 ba fe 8a 1c 3d 38 62 f7 3b 7f f6 ee 3d
       -0.00050253334 0.03821849 0.0075495504 0.11668109
000120 c1 b4 e0 ba b1 03 ee bc 05 c2 07 3c 6c 13 61 3d
       -0.0017143713 -0.029054495 0.008286004 0.054950163
000130 27 b4 8d bc c4 11 08 3b 6a f8 d2 3c 3c 50 aa bc
       -0.017297817 0.0020762542 0.025753219 -0.020790212
000140 74 91 c5 3c 1b a0 b6 3b 55 1a db 3b f0 aa 0c 3c
       0.024117209 0.0055732853 0.0066864886 0.008585677
000150 5e d4 12 bd ce df 12 bd 2c 1e bd bb 91 b4 6b 3d
       -0.03584706 -0.035857968 -0.005771419 0.05754525
000160 8e ab 81 3b 33 10 36 bb 55 a3 b2 bc 90 02 48 bc
       0.0039572185 -0.0027780652 -0.021806398 -0.012207642
000170 84 b1 38 3d 3f 59 15 bd 0b b6 84 3c 3a 7c de 3c
       0.045091167 -0.036462065 0.016200086 0.027158845
000180 97 51 69 bd 76 e1 9e 3c 96 4a 1f 3b 76 30 10 bd
       -0.056962576 0.019394618 0.0024305931 -0.035202466
000190 70 11 b2 3c c5 17 ee 3d 66 38 f9 3b 1b 16 ea 38
       0.02173683 0.116256274 0.0076056 0.00011162107
0001a0 e2 8a 8a bd d8 c0 9f bd 74 39 aa bd 8b 70 2c 3d
       -0.06764771 -0.07800454 -0.083117396 0.042099517
0001b0 76 24 1f bd 12 2c 0d 3d a7 4d dc 3b 89 56 c3 3c
       -0.03885313 0.034465857 0.006723124 0.023844974
0001c0 ea 40 34 3d 18 87 fb bb a5 22 d4 3d 9c 1f 09 3c
       0.04400722 -0.0076760165 0.103581704 0.008369353
0001d0 6c 4f e8 bb 29 d2 3d ba 29 e6 a9 3d e9 5d 9c 3c
       -0.007089546 -0.0007241094 0.08295853 0.019087749
0001e0 14 96 64 3d 58 58 c6 3c 45 c7 07 bd 81 e6 ef bb
       0.05580719 0.024212047 -0.033149023 -0.0073211794
0001f0 aa 11 d6 bd 22 4d b5 3b 00 f2 ea 3b ed 50 cc 3b
       -0.10452588 0.0055328766 0.007169962 0.006235233
000200 8c 5c 3f ba ca 9b c3 3d bd aa 77 bc 99 87 2e bc
       -0.00072998623 0.09551199 -0.015116391 -0.010652446
000210 d1 8a a3 39 19 a2 af 3c 9c 24 f3 bd 50 eb 21 bd
       0.0003119321 0.021439599 -0.11872217 -0.039531052
000220 8a 25 18 3c a5 c2 99 3d 0e 2b ad 3d d8 72 46 3d
       0.009286294 0.075078286 0.08455478 0.048449367
000230 a2 b8 37 3e 5e 54 0e bd 1d f0 70 3c a3 3c 8e 3d
       0.17941526 -0.034748428 0.014705685 0.06945159
000240 93 ff 5d 3d aa 90 f0 b9 1c 97 66 bc 44 d7 3b 3d
       0.054198813 -0.0004588415 -0.014074113 0.04585959
000250 d0 2d 6c 3d 15 30 a8 3c 61 83 14 3e 0d b3 1d bb
       0.057660878 0.02053074 0.14503242 -0.0024063021
000260 d5 c6 f4 bc c0 5a 82 3d eb 3d b0 bd d9 51 ca 3c
       -0.029879967 0.063649654 -0.0860556 0.024697231
000270 aa 28 49 3e 7c 10 4f bc 21 80 bc 3c 4c 37 a0 bd
       0.19644418 -0.0126382075 0.023010315 -0.07823047
000280 85 88 aa 3e c4 b2 5a bd c6 c9 c5 bb 78 f8 b3 3d
       0.3330728 -0.05339314 -0.006036016 0.08787626
000290 dd fa 61 bd ec 23 de bd 7f 1a 53 3e 9b 8b 9c ba
       -0.055170882 -0.10846695 0.20615576 -0.0011943461
0002a0 be ed 90 bd fd 14 59 3e 77 89 a1 3d 40 2f b1 3c
       -0.07076596 0.21199413 0.078875475 0.021628976
0002b0 d1 fb a1 3d ab c5 9e 3c d0 aa 5f bc da d2 e6 bc
       0.07909358 0.019381365 -0.013651565 -0.028176714
0002c0 99 68 9f bb 7f 6f 63 bc fe ea 1d 3a a2 b5 8c bd
       -0.004864764 -0.013881563 0.0006024091 -0.06870581
0002d0 f0 f4 b4 bc 36 b7 09 b9 a0 da b0 bc 60 66 f8 bc
       -0.022089452 -0.0001313359 -0.021588624 -0.030322254
0002e0 cc e4 59 3d 5e be 4c bc 96 98 ab 3d 32 02 33 3d
       0.053196713 -0.012496559 0.08378713 0.043703265
0002f0 82 47 79 3c 84 5e 03 be 91 6e 11 3c 0c 94 a3 bc
       0.015214803 -0.12829024 0.008876459 -0.019968055
000300 d3 1c 33 3a 3a 1c f8 3b fd fc 8b bb 74 bb 9a 3a
       0.0006832603 0.0075717242 -0.004272102 0.0011805133
000310 d0 73 29 ba 87 40 ae 3c 02 bb 17 ba cc 11 3e 3d
       -0.0006464096 0.021271003 -0.0005788059 0.04640369
000320 b4 99 7f 3a 2e ed d3 ba 57 a5 d7 3c ee 21 9a 3d
       0.00097503816 -0.0016168708 0.026323957 0.07526003
000330 f2 bd 40 3d 0c 11 32 bc 9b 57 eb 3b de ac 39 3c
       0.047056146 -0.010868322 0.0071820742 0.011332719
000340 0e 93 5b 3c b4 8c b7 bb 17 fb 8c 3b 37 fb be 3b
       0.01340176 -0.00560149 0.004302393 0.005828287
000350 ae c9 5c bc ba 83 0b bc c1 b7 f7 3b 46 e0 b9 3c
       -0.013475819 -0.008515293 0.007559747 0.02268995
000360 c4 e7 26 3a 8a ee 23 3b 18 e4 5a bc 1e ad 16 bc
       0.0006366933 0.0025014007 -0.013360046 -0.009196548
000370 74 17 cc 3d dc f6 c2 ba 3f 0f d5 3b 55 6c 92 3b
       0.09965411 -0.0014874595 0.0065020616 0.0044684806
000380 bb 2e 47 bb 73 6a 8f 3b e2 a3 72 3a 20 fb 4b bb
       -0.0030392844 0.0043767034 0.0009255988 -0.0031125024
000390 1e 7d b6 3b 5c 39 41 3d 85 20 43 3c d8 83 df 38
       0.0055691143 0.047173843 0.011909609 0.000106580264
0003a0 23 78 c7 bc 5a d1 98 bc 75 25 59 bd de bd 83 3c
       -0.024349278 -0.018654514 -0.053014237 0.016081747
0003b0 6c 2b 36 bc 63 7f 39 3d 0a 25 cf 39 f8 4a 55 3d
       -0.011118751 0.0452875 0.00039509713 0.05207345
0003c0 07 dc 84 3c d3 39 a4 ba 07 92 1d 3d 1d 6d 8d bb
       0.016218198 -0.001252944 0.03846934 -0.004315986
0003d0 2e 03 a0 ba 79 a8 c5 39 f7 17 6c 3d 22 af 3c 3b
       -0.0012207979 0.0003770029 0.057640042 0.002879091
0003e0 f8 5a 13 3d 26 bf a5 3b 49 78 d8 bb 81 23 d9 ba
       0.035975426 0.005058187 -0.006606136 -0.0016566367
0003f0 c1 74 90 bc 8f d7 a3 bb 26 60 94 3b 61 35 52 b9
       -0.017633798 -0.005000062 0.0045280633 -0.00020047046

conv3.bias f4 [16]
000000 64 90 b9 3d 60 f0 89 3d a1 a7 38 ba 6f f0 b7 3d
       0.090607435 0.06735301 -0.00070440216 0.08981406
000010 a7 b4 c9 3d d4 ff 34 3c b6 bc 28 3d 3b 60 cc 3d
       0.0984891 0.011047322 0.041195594 0.09979292
000020 67 cd bb 3d d7 66 2e 3d 08 ed 02 3d 64 b4 d8 ba
       0.09170037 0.042578544 0.031964332 -0.0016533253
000030 75 d4 d1 3d 7d 80 b2 3b 01 34 31 3d 44 6b f1 3d
       0.10245601 0.005447446 0.043262485 0.117880374
